embeddings/autoencoder_model.pt (torch, 532792 bytes, 8 tensors)

weight f4 [128, 384]
00000000: e7f5 03bd 286b dcbc afd8 fbbc b634 45bd
00000010: 8624 30bc 8aac 6d3b dcba 3b3c d31b 5e3c
00000020: 6ee2 de3c 8a84 0bbd 3b6f 5dbd 792d 143d
00000030: d85b 9dbb bb09 2d3d 7b70 063d 0e80 0e3d
00000040: 9de6 6b3d f97f 843c 04d0 37bd 2a70 25bc
00000050: 1f23 cebb f50d 88bc b566 723b 8233 e83c
00000060: 378c 993b 53f2 afbc 208a 323d 4505 343d
00000070: df79 343d a9bf a3bc 5dc9 efbc 37ef 623d
00000080: 3310 2c3c 2873 973c 1c6b f9bc a612 9f3b
00000090: e178 333d 39e2 64bc 289f 32bd a8fa b3bb
000000a0: 896f 933a f059 19bd 50df 753b 79b3 9c3c
000000b0: be20 a93c 1dc7 283d 4f2c 20bd 98d1 12bd
000000c0: c428 5f3b 4944 e8bc ca1c 66ba d889 aebb
000000d0: ddba 05bd 9f48 87bc 6218 0ebd 69f3 743c
000000e0: 4641 15bd af57 1cbd 052e 1cbc 1ea8 1939
000000f0: 233e c0bc 106b 123d 6119 49bd 3440 da3b
00000100: 322d fabb 4aa1 2fbd 76be 0c3d 4114 e83a
00000110: eed2 27bd cb58 353d dcbd 0bbd 1448 1e3d
00000120: 2f9a ad3c c285 5f3d 6da7 833c bee6 073b
00000130: 5a19 843b 7257 8b3c 4abf 94bc 696a 033c
00000140: 1040 303d d4a1 3f3d 4e8e 49bc 7873 eb3c
00000150: bb2a 36bd b96b f5bc 2be6 fc3c 72e6 4fbd
00000160: 8fd6 143d c6b9 9bba b98d 09bd 43ff c33c
00000170: e4dd 4f3c 2816 01bd 85ef 303c e545 033d
00000180: 1cbe dcbc 4b4a a03c 4e92 46bd c123 abbb
00000190: cc0a 773c f4d3 fcbb d029 ddbc c3b2 31bd
000001a0: b85c b1bb 9c3a 30bd aade 45bd 947e ca3c
000001b0: c175 9e3d 1848 ef3c d511 b4bb 685c 8d3c
000001c0: 6d1f f8bc 0172 8c3c 3cfd 25bd d562 513d
000001d0: 05d7 35bd d053 b0bc b499 063d 8659 123b
000001e0: 1778 bbbc 6482 0bbd b465 a93c 3aa0 393d
000001f0: 1b47 c8bc ceb6 0ebd c719 b93c 2c6b 95bc
00000200: 88f5 ff3b 17e0 483c 3edd d7bc 62a9 f5bc
00000210: 8cf6 983d 16fe ebbc ab5a 243d d9fd 52bc
00000220: 1d2e 5d3b 99cb a83c 609c e13b 3d88 3e3d
00000230: 0b7f 733c 2c9a 1abd 5732 d2bc 39b2 85bd
00000240: 55a8 43bd b668 2c3c a96d 883b 15ee c3bc
00000250: 79c0 85bb 28a3 4e3b c08f 323d fc4e 9abc
00000260: c8cc 053c 17fb d3ba 6d0e 79bb bd0d 26bd
00000270: 87b5 dc3c 8e7f f53a 37aa 943a ea53 46bd
00000280: c14e 403c fd2a 063d 2f70 023d 16ac 00bd
00000290: dd68 1a3d 41ae fb3c fad8 c439 abdc 183b
000002a0: 9299 0c3d ac74 3a3c 27fd 55bd bfaa 9b3b
000002b0: 429d 71bd a3ba 21bd 402c e73c 9c0b af3c
000002c0: f915 0cbd 6216 253d 992f 9b3b 407e 563b
000002d0: bc86 abbc c02e 4f3d 9f8e bc3b a45a 7f3a
000002e0: 9d3f 193d 09b7 553d 0744 123d 96fd 09bd
000002f0: a7f0 5cbd 6f93 4f3d 4194 9b3c e0cd c43c
00000300: 7711 013d a860 433d 3585 8b3c 0007 2abc
00000310: 44f3 d43c 20bd a5bc a719 64bc 0684 0c3d
00000320: e9ad 81bc a6fb e1bc 0d31 1a3d 7fa9 6cbc
00000330: 2ba2 2ebd 0efe e53c 08da 843c 6480 513d
00000340: 6a4a 9abc a946 9f3c e855 0bbd 8171 c63c
00000350: 495e b4bc fab1 afbc 9c47 2cbd f7f3 dc3c
00000360: e07f 0c3d 6197 c43a 7c2c 7ebc 5c29 bf3b
00000370: b671 0bbd 52ec 0cbd cfae 1cbc ef11 4c3d
00000380: 8830 2e3d fe19 163d beb8 9eb9 d6c0 673c
00000390: 55e2 97bc 16d3 9d3b 00f3 e2bc c817 25bd
000003a0: fdb6 8f3b 3d3f 823c a62d 07bd a4ee 9bbc
000003b0: 1b84 3ebc 5cd3 243d 2d16 46bd 3c8b eb3b
000003c0: e9b4 01bd 8002 7abc c336 00bd f1ac a5bc
000003d0: 2cfe 983c 1f29 31bd 229b f6bc 82d4 fabc
000003e0: d6bc 043d da9c 113d 4b84 11bd 26f9 b93c
000003f0: c790 42bd 67a9 633b 4a5c 983c 763d 01bd
-0.032216933 -0.026906565 -0.030742971 -0.048145972 -0.010750895 0.0036266171 0.011458125 0.0135564385
0.02720758 -0.034061946 -0.054061156 0.03617618 -0.0048022084 0.042245608 0.032822113 0.03479009
0.057592977 0.016174303 -0.044876114 -0.010097543 -0.006290808 -0.016608218 0.0036987488 0.028344873
0.0046859044 -0.021477854 0.043588758 0.043950338 0.044061538 -0.019988852 -0.029270822 0.055403914
0.010501909 0.018487528 -0.030446582 0.004854518 0.04381645 -0.013969951 -0.043608814 -0.005492527
0.001124845 -0.037439287 0.0037517138 0.019128548 0.020645496 0.041205514 -0.039104756 -0.035844415
0.0034051398 -0.028352873 -0.00087780936 -0.005326491 -0.03264891 -0.01651412 -0.034691222 0.014950612
-0.036439203 -0.03816956 -0.009532456 0.00014653846 -0.02346713 0.035746634 -0.04909647 0.0066604856
-0.007634782 -0.042878427 0.034361325 0.0017706231 -0.040972643 0.044274133 -0.03411661 0.038642958
0.021191685 0.05457092 0.016071046 0.0020736898 0.0040313425 0.01700947 -0.01815762 0.008020976
0.043029845 0.04678519 -0.0123019945 0.028741583 -0.044474345 -0.029958593 0.030871471 -0.05075688
0.03633743 -0.0011880926 -0.033582423 0.02392543 0.01268718 -0.03151527 0.010799293 0.03204908
-0.02694612 0.019566676 -0.04847937 -0.005222768 0.015078258 -0.0077156965 -0.026997477 -0.04338337
-0.0054126643 -0.043024644 -0.048308052 0.02471856 0.077373035 0.029209182 -0.00549529 0.017255977
-0.030288422 0.017144205 -0.040524706 0.051119644 -0.04439451 -0.02152434 0.032861426 0.0022331192
-0.022884412 -0.034059897 0.020678379 0.04531882 -0.024447968 -0.034842305 0.0225953 -0.01823958
0.007811252 0.012260458 -0.026350614 -0.029987995 0.074689 -0.028807681 0.04012553 -0.012877905
0.003374941 0.020604895 0.0068850964 0.046516646 0.014861832 -0.037744686 -0.02565877 -0.06528134
-0.047767956 0.010523012 0.004163463 -0.023917237 -0.0040817824 0.0031530354 0.043594122 -0.01883649
0.008166499 -0.0016172853 -0.0038002983 -0.040540446 0.026942028 0.0018730031 0.0011342232 -0.04841987
0.011737526 0.03275584 0.031845268 -0.031414114 0.03769766 0.03072274 0.00037545693 0.0023324888
0.034326144 0.011380356 -0.052243378 0.004750579 -0.058987863 -0.03948463 0.028219342 0.02136784
-0.034200642 0.04030455 0.0047358987 0.003272906 -0.02093827 0.050581694 0.0057543064 0.00097409845
0.037414182 0.05217651 0.035709407 -0.033689104 -0.05394044 0.050677713 0.018991591 0.02402395
0.031510796 0.0476996 0.017031291 -0.0103776455 0.025994904 -0.020231783 -0.013922132 0.034305595
-0.015829997 -0.027585816 0.037644435 -0.014444708 -0.042635124 0.028075244 0.016217247 0.051147833
-0.018834312 0.019442873 -0.034017473 0.024224045 -0.022017615 -0.02144717 -0.04206048 0.0269718
0.03430164 0.0014998728 -0.015513536 0.005833788 -0.03404399 -0.03440506 -0.009563162 0.04982179
0.04252675 0.03664588 -0.00030273752 0.014145097 -0.01854054 0.004816423 -0.027703762 -0.040305883
0.0043858276 0.015899295 -0.033002518 -0.019034691 -0.011628176 0.04024063 -0.048360992 0.007188229
-0.03166667 -0.015259385 -0.031302225 -0.020224066 0.018675886 -0.043252107 -0.03010327 -0.03061891
0.03240665 0.035549976 -0.035526555 0.022701811 -0.04750135 0.0034738423 0.018598694 -0.031552754

bias f4 [128]
00000000: 5cc9 cdbc 1f62 0f3d 0e40 afbc a2f5 a33c
00000010: 46d4 223d 7737 503d 752c 1f3c 2192 433d
00000020: 5e6c 4d3d fe90 8c3c 8392 3e3b 0ba9 4e3d
00000030: d028 acbb 8563 46bd ae91 923a f44f 2b3d
00000040: ccfb 6d3d 20e4 2bbc 25e9 f13c 23d9 95bc
00000050: 42b6 5a3d 746d 8cbc 8502 0fbd 57ac a6bc
00000060: c04a 28bd 0f0a 0abd 5f5a 4cbd 6326 1f3d
00000070: 3a52 f43c c81a 083c 1724 dc3c 7439 be3c
00000080: 9ccc bdbc 64de 4bbc 8c25 893d eef8 0a3d
00000090: 8c93 03bd ef42 273d 916c 683d 3946 7b3c
000000a0: 30af 0bbd 37e9 963c e5b3 afbc bc69 213d
000000b0: 1400 4fbd bd08 603c e7ef f73c 40f7 92bc
000000c0: 64b4 f23c e4ab 04bd b97a 493d 77ff 973c
000000d0: 393a 54bc 8327 fbbc 4c2f 04bd ff83 3fbd
000000e0: c7b9 053d 5d13 043d bd6d 53bc 8948 36bd
000000f0: 3392 433d 87ca 39bd cbc7 de3c 9af4 543b
00000100: 09cc 573c b90a e33c cb1a 2a3d 2ad3 1d3c
00000110: 9697 1a3d 1fe7 37bd c00a 923c 6f2c 1dbd
00000120: 1947 be3c e704 0f3d 02d9 31bb 3ee2 f4bb
00000130: 88ea 1f3b b339 f939 d838 2c3d 80ec 4cbc
00000140: fd59 813a 65dc 933c 94e5 2e3d 0637 333d
00000150: 1c43 493d 7c7e 113d d0fe 3cbd 6d88 0b3c
00000160: e529 113c aaec fb3c 65f4 073d 3d61 49bd
00000170: aff5 fabc 86c4 e43c c2e4 023d 7d59 123c
00000180: a62e 6b3c 9b6b a9bc 2c9a 7cbc c23d 963c
00000190: e8cb fbbc 3523 18bd 4422 3fbc 2e3d 04bd
000001a0: a87a 0dbd 7212 373d 642c 45bd 53e9 93bc
000001b0: a1de 213d 4e3c 48bc 5f9a 39bd ecd4 7dbc
000001c0: 91c0 c73c 74d0 2d3d 6c12 193d 7b70 07bd
000001d0: acdd 7e3d 7d4a 383d 0304 873c fb79 fabc
000001e0: 8a4e f8bc 7da8 213d 32e7 b8bc c3ba 26bc
000001f0: 9534 e83c daed 033d 4a23 08bd 251f d0bc
-0.02512043 0.035005685 -0.021392848 0.020014588 0.03975322 0.050834145 0.009715189 0.04774678
0.050152175 0.017158981 0.0029079027 0.05045418 -0.0052538887 -0.048434753 0.0011182332 0.041824296
0.05810146 -0.010491401 0.029530117 -0.018292015 0.05339647 -0.017142035 -0.034914512 -0.02034585
-0.041086912 -0.033701 -0.049890872 0.038854968 0.029824365 0.008307166 0.026872678 0.023220755
-0.023168854 -0.012443159 0.066966146 0.033928804 -0.032123134 0.040835317 0.056744162 0.015336567
-0.03410262 0.018421752 -0.021448085 0.039407477 -0.050537184 0.013673958 0.030265762 -0.017940164
0.029627033 -0.03239049 0.049189303 0.018554432 -0.0129533345 -0.03065849 -0.03227167 -0.04675674
0.032647874 0.03224503 -0.012904582 -0.04450277 0.04774685 -0.04535916 0.027194878 0.0032494427
0.013171204 0.027715074 0.041529458 0.009632865 0.03774222 -0.04489815 0.017827392 -0.038372453
0.023227261 0.034916785 -0.0027137403 -0.0074732592 0.0024401266 0.0004753597 0.042046398 -0.012507558
0.0009868738 0.018049428 0.04269941 0.043753646 0.049136266 0.035521016 -0.046141446 0.008516413
0.008860086 0.030752499 0.033192057 -0.049165 -0.03063473 0.02792574 0.03195644 0.0089324685
0.014354384 -0.020681193 -0.015417617 0.018339995 -0.030736879 -0.03714295 -0.011665884 -0.032284908
-0.034540802 0.044695325 -0.048138037 -0.018055594 0.039518956 -0.012221409 -0.045313235 -0.015492659
0.024383815 0.042435125 0.037371084 -0.033066254 0.06222312 0.044992913 0.016481405 -0.030575743
-0.030310888 0.039467324 -0.02257118 -0.010176363 0.028345386 0.032209255 -0.03323678 -0.025405476

weight f4 [128, 128]
00000000: 5972 a2bd 7dd2 b1bd fa7c 9dbd 75c6 c2bd
00000010: 7ca9 c1bd ba35 ed3c fc23 57bd 8b80 c2bd
00000020: 24b7 ac3c 893c 563d f74c 8dbd af22 acbd
00000030: 3aff 41bd 6120 47ba 6618 2f3d 0104 92bd
00000040: 4e2f b8bd 6561 6c3c 5b94 273c 85bc cf3c
00000050: 5971 a5bd b588 1bbd 2885 883d fda8 96bd
00000060: d6d2 80bd 7a1f da3c 7902 aebd f0fc afbd
00000070: 214f 25bd 0a08 08bd d8ef 923d 6624 7a3d
00000080: 450b 2d3d 1e27 94ba bc9d 133d 6e57 463d
00000090: 9279 4e3c db98 fc3c cb11 ba3c b471 3b3d
000000a0: 9cdb 6e3c 7261 d6bc cd04 a8bd 22ab 43bd
000000b0: 7b9c 29bd e189 543c 9145 6a3d 6142 4cbd
000000c0: 6ba3 ff3c 0504 573c 34dc 92bd f420 67bd
000000d0: 88c7 8d3d 744a 82bd 0249 823c 31f8 9c3c
000000e0: df9c 3d3c 3fbe c2bd d345 3abc 1dd6 8bbd
000000f0: f285 a23d 2a2d b1bd 8c2e adbd d6f0 9cbd
00000100: 4c8c 3f3d 7a59 683b bcce 4e3d 22e5 2d3d
00000110: cab3 bbbd 1d03 61bd 8c85 733d 195f 7abd
00000120: 9a7d 393c 2335 09bd 1b52 633c 003b 58bd
00000130: c7ac a03d feb6 1d3d c0aa 2c3d d982 6c3d
00000140: f8fe c2bd ca51 05bd 48b9 413d 957c c6bd
00000150: 8209 99bd 9e26 793d 78cb a9bd 2251 e43c
00000160: 88e5 733d 8315 993d 9434 3fbb 8ae3 c7bd
00000170: a341 ffbc 551d bd3c f234 55bd 4b68 103d
00000180: ee4f 1bbd 5ae8 a2bd 5af0 aebd 559c 433d
00000190: 5567 e93c d0d6 153d be84 04bc 17da 013d
000001a0: c3fe 913d f381 673d 1123 28bd baed 2d3d
000001b0: ca01 c23c 386c 963c c34f 26bd da3c bcbd
000001c0: 4d35 70ba e7f9 b43c 0d9c 6d3a 2b9b d7bc
000001d0: acd0 ecbc 4cca 48bc f8a5 72bd fac1 f2bc
000001e0: e1f6 803d 7736 70bd 21a1 6c3d 5c13 8d3d
000001f0: c020 0d3c 8f08 4fbd aff3 4abd cb90 8c3d
00000200: afe0 af3c 2dd3 79bd 8826 24bd a93c 2b3d
00000210: b353 333d 9308 a43c bb66 3bbc 7da6 a1bd
00000220: ae81 b3bd 97e4 79bd cc57 62bd 82c9 8f3d
00000230: d613 f6b9 57a4 35bc e00b 8c3d 2817 9b3c
00000240: aabd bdbd 04f1 a03d e8c9 51bc 9cf4 093d
00000250: b8d1 5dbd 08af b4bc 4c0d 8d3d 6b14 2bbd
00000260: a209 82bc 17f6 84bd b9a3 13bd 5ae3 53bd
00000270: bbc1 693a 6e6e 85bd 1efe d0bd 4769 37bd
00000280: 9668 07bc f843 613d d787 94bd db7b dcbc
00000290: f128 7d3d 3e97 703d a5ba 25bc 7617 b23d
000002a0: e5d4 823d 7a86 8dbd 40d2 95bd df14 983d
000002b0: b961 91bd 5e49 8fbd 3c67 b2bd 16f2 f9bc
000002c0: d892 7dbc 9606 d3bc 4db4 723d 6182 ff39
000002d0: 3c11 b7bd eb8c 953d 2e16 de3d 90d9 a93d
000002e0: e26a 413d 2e26 753d 36db 213d c608 4dbd
000002f0: 9317 e1bb f78c 4a3c 3db0 bebc e21e 823d
00000300: 82c8 8d3a ab69 2a3d 8a93 0cbd 9488 8dbd
00000310: 197e 5abd d3f2 453d 3323 8d3d c7f3 efbc
00000320: adcb 5e3d 9552 24bc c85b f9bc f024 ab3b
00000330: 8f07 9a3d 7e88 a7bd 2c4c 6bbc e21f 303d
00000340: a627 2d3d fdca 323d 9f4f 213c e448 a73d
00000350: ee4f 983c 4e81 47bd 71d4 11bd 531a 51bc
00000360: 6a9e 8dbd cd1c 193d c107 323c 83f3 7bbd
00000370: 8c65 89bd 7d01 8e3d 0b65 4abd 58fe 3e3d
00000380: e09a a93d 4ca6 943d c21e 483c 821d abbb
00000390: f492 e03b 38ef 90bd 6638 9f3d 58fc a6bd
000003a0: bb1d 82bd bc71 1b3d eefa 2d3c c495 23bd
000003b0: 3c32 98bc 6901 883d e4dd 52bd a6c7 38bd
000003c0: 722e 78bd b256 873c 958f 123d 875c 7dbc
000003d0: fff7 613d 1bb3 7f3d 5591 f23c 6e68 d33c
000003e0: 9054 52bc 805d cd3c 2d79 8f3c 8b41 b1bd
000003f0: 120b 1fbd 737b 4fbd beaf 3bbc d075 71bb
-0.07931966 -0.086827256 -0.07689853 -0.09510509 -0.09456155 0.028956283 -0.05252455 -0.09497174
0.021083422 0.052303825 -0.068994455 -0.08405053 -0.047362544 -0.00075960724 0.042747878 -0.0712967
-0.08993398 0.014427518 0.010228242 0.025358448 -0.0807826 -0.03797217 0.066660225 -0.07356451
-0.06290214 0.026626337 -0.08496565 -0.08593166 -0.040358666 -0.03321079 0.07174653 0.06106987
0.042247076 -0.0011303162 0.0360391 0.048423223 0.012602227 0.030834606 0.022713562 0.045762733
0.014578726 -0.026169512 -0.08204041 -0.047770627 -0.041408997 0.012972326 0.05719525 -0.04986799
0.031205853 0.013123517 -0.07170907 -0.05642791 0.06922823 -0.06361857 0.015903953 0.019161316
0.0115730455 -0.09508943 -0.011369186 -0.06827948 0.07935704 -0.086511925 -0.08456144 -0.07663123
0.046764657 0.0035453723 0.050490126 0.042454846 -0.091651514 -0.05493461 0.059453532 -0.06112585
0.01132145 -0.03349794 0.013874556 -0.05279064 0.07845455 0.038504593 0.042155027 0.057741974
-0.09521288 -0.032548703 0.04729584 -0.09691731 -0.074725166 0.060827844 -0.08290762 0.027870718
0.05954507 0.07474806 -0.0029175626 -0.097601965 -0.031159228 0.023085276 -0.052052446 0.03525571
-0.037918024 -0.07954474 -0.08541937 0.04775651 0.028491655 0.036581814 -0.008088289 0.031702127
0.0712867 0.056520414 -0.041049067 0.04246304 0.023682494 0.01836215 -0.04060341 -0.09191294
-0.0009163216 0.022091819 0.0009064086 -0.026319107 -0.028908096 -0.012255263 -0.05924031 -0.02963351
0.062970884 -0.05864569 0.057770852 0.06888458 0.008613765 -0.05054527 -0.0495488 0.068635546
0.021469442 -0.06099241 -0.04007581 0.041805897 0.043780994 0.02002362 -0.011438067 -0.07893083
-0.08764969 -0.061009016 -0.05525951 0.070208564 -0.00046935555 -0.011086545 0.068382025 0.01893194
-0.09264691 0.0785847 -0.012804486 0.033680543 -0.05415508 -0.022056118 0.06887302 -0.04176752
-0.015873734 -0.064922504 -0.03604481 -0.05173049 0.0008917113 -0.065152034 -0.10204719 -0.044778135
-0.008264681 0.05499646 -0.07252472 -0.026914528 0.061806623 0.058737986 -0.0101153 0.08695881
0.06388263 -0.06910415 -0.07315493 0.07425856 -0.07098717 -0.069964156 -0.08711097 -0.030510943
-0.015476905 -0.025759976 0.05925398 0.0004873453 -0.08938834 0.073022686 0.10844074 0.0829345
0.047221072 0.059850864 0.039515696 -0.050057195 -0.0068692653 0.01236271 -0.023277396 0.06353547
0.0010817202 0.04160468 -0.03432039 -0.06910816 -0.053342912 0.04832728 0.06891479 -0.029291047
0.05439346 -0.010029455 -0.030439273 0.005222909 0.07520973 -0.08180331 -0.0143614225 0.042999156
0.04227414 0.043650616 0.009845643 0.081682 0.018592801 -0.0487073 -0.03560299 -0.012762624
-0.06914981 0.037380982 0.0108661065 -0.061511528 -0.06708822 0.069338776 -0.04941277 0.04662928
0.08281493 0.07258281 0.0122143645 -0.0052220235 0.0068534557 -0.07076877 0.07774429 -0.081535995
-0.06353327 0.037950262 0.010618908 -0.03993775 -0.018578641 0.06640894 -0.051481143 -0.045112275
-0.06059117 0.016520832 0.03578146 -0.015463955 0.055168148 0.062426668 0.029610315 0.025806632
-0.012837544 0.025068998 0.017513836 -0.086550795 -0.038828917 -0.05065484 -0.011455474 -0.0036843903

bias f4 [128]
00000000: e685 003d 4bc7 783d b685 97bc a64d 953d
00000010: ee77 533d 0872 923d 4505 733b 2456 e2bc
00000020: 45ca 7bbd 5bfc d13c 4ae5 8dbd 19e2 5d3c
00000030: 3956 de3c c95e d03c 1e09 ddbc 87a1 8b3d
00000040: 4940 cd3c afd6 973d 83b7 e53c 7ed5 513c
00000050: a5d9 9b3d b11c 1ebc 6103 27bc 417a 533d
00000060: 92be 7b3d 8837 6b3d 2053 ccbd a8eb 15bd
00000070: d571 df3c c28b a63d 7bfd 08bd acee 413d
00000080: 5354 043c bdc8 61bd f77e b4bc 1ca2 5b3d
00000090: d631 8a3d 703d 00bd 3fcb 4b3d 68fd 8abd
000000a0: 8b38 4ebd 02e5 b73d 47fc f4bc d72c 9b3d
000000b0: 6bd2 453d 011a aebd c10e a83c b0a8 753c
000000c0: 7925 933d 0c6a 04b9 e1f7 37bd cecc 64bd
000000d0: be67 f23c 84d4 853d c14d c2bc 413b 9bba
000000e0: 3cdb 693c a956 4dbc 35a9 87bc 0599 27bc
000000f0: aa3b 0bbd b266 6f3d 828a d83b 4f5c 993d
00000100: 07fd c33c 2df8 0bbd f4ed a63d 25e9 0f3d
00000110: 6bcb 6a3d d5aa 2e3c c377 4dbd 0d6a ebbc
00000120: cff0 683d 88b4 b2bd 3b67 88bd 93a2 0a3d
00000130: 3d80 91bd 8b46 babd 9ec5 2ebd cc8d 87bd
00000140: 3e2d 81bd 0dec 8fbd 1239 9a3d b9c1 74bc
00000150: 2a0b aa3d 1a35 c6bd e4ea 813d ad63 b9bd
00000160: b1bf d13b b920 3a3d 3b96 6ebd 9eb2 9bbd
00000170: 3a6c 90bd 90de 8e3b 4461 9bbb 7e54 b53b
00000180: b895 f2bc b515 863d 8d4b 57bd 7691 acbc
00000190: 5515 b73c c69a a03d eab0 a1bd 8d47 043b
000001a0: 7375 213d 89e0 893d b9c9 61bd e3fa 893d
000001b0: 9e7f 92bd 5521 583d a133 7d3d 8ee4 0bbd
000001c0: 5eb9 d73c 6211 29bd c8c5 263d 5567 163d
000001d0: 594d 463d 0753 1a3d 9c00 b73d dbe2 92bd
000001e0: 5002 963d 54b4 963c 259c 72bb 44d1 8a3d
000001f0: f3eb 88bd 37f0 afbc e8f1 903d c7eb 5b3d
0.031377696 0.060736936 -0.018496376 0.07290201 0.051628046 0.07150656 0.0037081998 -0.027628966
-0.061472196 0.025633028 -0.06928499 0.013542675 0.027140724 0.025435822 -0.026981886 0.06817918
0.025055068 0.074139945 0.028041607 0.012807248 0.07609872 -0.009650395 -0.010193677 0.051630262
0.06146104 0.057426006 -0.09976792 -0.036601692 0.027275959 0.081321254 -0.033444863 0.047346756
0.008076745 -0.05512308 -0.022033198 0.053621396 0.06747787 -0.03130859 0.049754377 -0.06786615
-0.050346892 0.08979227 -0.029905451 0.07576912 0.048296373 -0.085010536 0.020514848 0.0149938315
0.07184882 -0.00012628007 -0.04491413 -0.05585938 0.029590484 0.06534675 -0.023718717 -0.001184322
0.014273461 -0.012532868 -0.016560176 -0.010229354 -0.033992447 0.058447547 0.0066083083 0.074883096
0.023924364 -0.034172226 0.08150855 0.035134453 0.0573229 0.010660847 -0.05016304 -0.028737092
0.056870278 -0.0872584 -0.06660315 0.03384645 -0.07104538 -0.09095486 -0.04266893 -0.066188425
-0.063074574 -0.07027445 0.075304165 -0.014938765 0.083029106 -0.09678097 0.0634363 -0.09052215
0.006401025 0.045441363 -0.05824874 -0.07602428 -0.070518926 0.0043600276 -0.0047418196 0.005533754
-0.029612407 0.06547109 -0.052562285 -0.021065455 0.02234904 0.07842021 -0.07895072 0.002018425
0.03941865 0.0673228 -0.05512402 0.06737306 -0.07153247 0.052766163 0.061816815 -0.034153514
0.026333507 -0.041276343 0.040715963 0.03671964 0.04841361 0.037676837 0.08935663 -0.071721755
0.0732466 0.018396534 -0.003701934 0.067781955 -0.06685629 -0.021476848 0.0707739 0.05369165

weight f4 [128, 128]
00000000: ce1c 96bd 95db 86bd 2610 b03c 0d42 8d3d
00000010: 61d6 9fbd 740b 89bd 10a3 ad3d 3f51 a1bc
00000020: a693 84bd c7c8 cd3c f3a1 c73d 5adb 393c
00000030: 0856 5e3d cbce 8fbd 87b4 b9bd de7e 993d
00000040: 9f42 9f3d 0c2c aebc 33f3 7abd d1e6 14bd
00000050: ae08 66bd 260a 8a3d 13f0 34bd 2734 763d
00000060: 38ff bb3d ca61 673d 9896 4439 c759 dd3b
00000070: 0024 303d c8d3 953d e7ad ccbc 3a53 8dbd
00000080: 6004 763d 10bb 173d b449 953c 9124 c23c
00000090: ae4d fd3c 87bd 63bd 2720 38bd a800 873d
000000a0: 66ca e53c a2ba acbd 9935 83bc d747 00bd
000000b0: d412 49bb 68e1 a43d 4caf 2c3b 3234 7e3c
000000c0: e4f5 35bd dfed 93bd 530b f6bc c41d 3cbc
000000d0: 506f 323d cff0 553c a8af 99ba a0c3 7abd
000000e0: 464f 97bd 3471 2f3d 7eee 203c ed2f 8e3d
000000f0: 190d 293d a3c3 813d 415b 153b e109 e839
00000100: ab8a 51bd 9027 cb3c 8444 933d 8d3d 31bc
00000110: 85b3 563c a30f 5cbd 5de8 8c3c 2c8a a6bc
00000120: 5f05 713d 1c42 863d 5d12 aa3d 8170 a23d
00000130: 9a4f 7e3d 2791 9abd 3581 953d 2802 13bd
00000140: 9894 6ebd ba23 54bc 4b29 a13d 992b b1bd
00000150: 0505 4abd 5a5e 9b3d 1449 773d 167d 8fbd
00000160: f724 64ba 59fb 86bd e2ba e0bb 44ec 1bbd
00000170: 78ac 8cbd d08c 933d 3f70 183d 42dc 71bd
00000180: 09c6 673c adc7 0bbd 4be5 a23d b3bd 86bd
00000190: 554e 36bd afa5 8e3d 1645 4e3d 65e9 49bd
000001a0: a721 7dbd 02b1 9e3d 4ca4 a83d 24eb 453d
000001b0: 66c7 36bd bf4a 823d a086 55bd 959c c4bc
000001c0: 7b87 af3d a0db 03bd ab3b cb3c 8ef0 853d
000001d0: 9eed 21bc d6e4 81bd 7c38 e43c 3dd2 463d
000001e0: 83cc 6dbd e6e3 e2bb d19c 02bc dd1a 7b3b
000001f0: b911 41bd cc6b 86bd 8c22 cd3c a7ee 88bd
00000200: 6118 823d 2b8f 91bd 7f93 50bd 5a0b 1ebd
00000210: 7c39 c23b dc65 673d 190b f7bc c18a 81bd
00000220: 9d93 463d 5888 94bc 59f2 3c3b 9699 a7bd
00000230: d66b 15bd 963e 0ebc dbbc 723d ab68 28bd
00000240: cfbc 98bb 6310 43bd 10bd 87bd b6b9 a0ba
00000250: 8c09 93bd 9ef6 e93b 122e 8abd 73bd 9b3d
00000260: 9818 053d 5ede a4bc d534 803d 5d31 43bd
00000270: 8632 fabc 4ead 233d c1c5 533d 26ed 623d
00000280: c1e5 853d 1cbe 5d3d 6241 8b3c 80cf 4ebc
00000290: 3ef8 853d 306c 91bb be58 88bd 0eb5 6f3d
000002a0: 37f9 aa3c 5321 a0bb 7b55 d33c 57fb 77bc
000002b0: 7fc8 063c 8ee0 45bd 0872 803d 62cf f53c
000002c0: 9893 8ebd eaa3 b6bd 76d2 853d cb23 86bc
000002d0: a643 a23d 5ef8 85bd 694a 4f3d c96b ec3b
000002e0: d01f 273c 7838 15bd 9593 a23d 7e76 ecba
000002f0: e2f5 0a3c a56f 16bd 0efe 5dbc cb2d cbbb
00000300: 8ec3 983d d5a6 7ebd d69d 2abd 7985 49bd
00000310: b6a2 843d 65bd 9ebd a016 873d 8e4e 18bb
00000320: 0ce0 38bd a237 ef3c 6844 1ebd cdf2 203d
00000330: 7161 7e3c d182 733d b62e 433d 84ac 173d
00000340: 5e5d 4cbd 9558 5e3d 38fd b43d ec4f a83d
00000350: 4752 313d 2d11 523d e29c 0ebb 8fbb ab3d
00000360: 2ef5 003c 4e7f 98bc a511 143d 5bf5 e5bc
00000370: 0b9d f0bb f07f c63c 5813 2a3d 3baa 743b
00000380: 7a09 6c3d 6664 a03d 52c3 753d b54a 49bd
00000390: e210 06bd f5fc bdbc 489e 8a3d c197 593d
000003a0: 25fa b63d 6716 98bc 39f7 33bd 4986 22bb
000003b0: a8e1 50bd e7f8 683d 45c4 8f3c 7606 cd3d
000003c0: 3866 a73d c2fb 033c 93e6 8dbc 7a2f 223d
000003d0: f853 6f3d 8e95 43ba b245 5b3d f714 47bd
000003e0: 8a1b 343c 9c5f 84bd fa22 cabd 782c 44bd
000003f0: 6340 01bd 9457 99bd 3a29 e63c 2d49 94bd
-0.07329713 -0.06584851 0.021492075 0.06897364 -0.078045614 -0.06691638 0.08478367 -0.019692061
-0.06473474 0.025120152 0.09747686 0.011343801 0.054281265 -0.070218645 -0.09067636 0.07494901
0.07776379 -0.021261238 -0.06126709 -0.036352936 -0.05616062 0.06740217 -0.044174265 0.06010833
0.091795385 0.056489743 0.00018748117 0.006755087 0.043003082 0.07315785 -0.024985267 -0.0690064
0.060062766 0.03704363 0.018223621 0.023699077 0.03092083 -0.05560067 -0.044952538 0.06591922
0.028050613 -0.08434035 -0.016016768 -0.03131851 -0.0030681388 0.08050805 0.0026349602 0.015515374
-0.044423953 -0.07223105 -0.030034697 -0.011481706 0.043563187 0.0130579015 -0.0011725323 -0.06122172
-0.07388167 0.04283257 0.009822486 0.06942735 0.041272257 0.06336143 0.0022789987 0.0004425785
-0.051157635 0.024799138 0.07190803 -0.0108178975 0.013104324 -0.05372585 0.017200643 -0.020329557
0.058843013 0.06555578 0.08304284 0.07931615 0.062087633 -0.07547217 0.07300035 -0.03589073
-0.05824718 -0.012947971 0.07869204 -0.08650894 -0.049321193 0.075863555 0.060372427 -0.0700628
-0.0008703018 -0.065909095 -0.0068582157 -0.038067117 -0.06868833 0.07204592 0.03721642 -0.059047945
0.014146336 -0.034125973 0.079538904 -0.06579151 -0.044508297 0.069651954 0.050358854 -0.049294848
-0.06179967 0.07748605 0.08234462 0.04831995 -0.044623755 0.06361913 -0.05213034 -0.024000445
0.08570763 -0.032191873 0.024808725 0.06540023 -0.0098833125 -0.06342475 0.027858965 0.048540343
-0.058056366 -0.0069241403 -0.007971958 0.0038315572 -0.047136042 -0.06563529 0.025040887 -0.06686144
0.06352306 -0.07107385 -0.050921913 -0.038585044 0.005927263 0.056493625 -0.030156659 -0.06325293
0.04848062 -0.01813142 0.0028830974 -0.08183591 -0.036479793 -0.008681914 0.059262138 -0.041115444
-0.0046611796 -0.04762305 -0.06627858 -0.0012262377 -0.07179555 0.0071399948 -0.067470685 0.07604494
0.032494158 -0.020125564 0.06260077 -0.0476545 -0.03054167 0.039960198 0.051702265 0.055401944
0.06537963 0.05413638 0.01699895 -0.012622714 0.06541489 -0.004437946 -0.06657551 0.058522277
0.020870788 -0.004886785 0.025797596 -0.015135608 0.008226513 -0.048309855 0.0627175 0.030006114
-0.06961745 -0.08917983 0.06534283 -0.01637449 0.07923059 -0.06541513 0.050608072 0.0072149974
0.010200456 -0.036430806 0.07938305 -0.0018040685 0.008481475 -0.036727566 -0.013549341 -0.0062005273
0.07459174 -0.062170822 -0.04165443 -0.049199555 0.06476347 -0.07750968 0.06596112 -0.0023240182
-0.045135543 0.029201332 -0.038639456 0.039294053 0.0155261615 0.059450928 0.04765197 0.037029758
-0.04989373 0.054283697 0.0883736 0.08218369 0.043291356 0.05128591 -0.002176099 0.08385383
0.007870955 -0.018615391 0.03614964 -0.028071096 -0.0073429397 0.024230927 0.041522354 0.003733291
0.057626225 0.078316495 0.060000725 -0.04914351 -0.032730944 -0.023191908 0.06768471 0.05312324
0.0893443 -0.01856537 -0.04393694 -0.0024799278 -0.050996453 0.056877997 0.017549643 0.10010998
0.081737936 0.008055629 -0.01732186 0.03959606 0.05842969 -0.0007460945 0.053533264 -0.048603978
0.010992894 -0.064635485 -0.098699525 -0.04789397 -0.031555545 -0.07487407 0.02809583 -0.0724052

bias f4 [128]
00000000: 10e1 9b3d e192 2f3d bb8e b3bd 4404 103d
00000010: e35a 1cbd 16a2 ce3b d6ea 29bd d638 983d
00000020: ad83 463d 4152 e83c 4676 9dbc 18b8 f3bb
00000030: fd67 5d3d 0a16 593d 8fa6 1e3d cc00 b83d
00000040: 4f63 883d b884 d63c 7bbc b83d 1233 bd3d
00000050: a520 59bd e231 4c3c c02e 65bc a998 a6bd
00000060: 8708 993c 9c48 c73d 5ec4 953d aa53 97bd
00000070: 084f d93c 2522 1fbd 585d ac3d d9f8 833d
00000080: 8a5a b0bc cb42 e5bc 93d8 8a3c 340e 46bd
00000090: 4cac 483d b878 1cbd a351 723c 73ca 4f3d
000000a0: 8923 a6bc 43a6 b53d c527 94bc 257a b63c
000000b0: 3628 223c 44e0 8fbd c931 863d 8ffd 11bd
000000c0: 8467 5b3d b062 623d 8bdc 80bd 5407 353c
000000d0: b241 a13d 43ea 153c af0f 913d cb1c 173c
000000e0: 5614 3ebd 239b 6b3d 3bad 7fbd ea19 02bd
000000f0: 086d 9abd 79ca 903d 01ae a03d 9e8a 5abd
00000100: 2c73 ee3c a056 3abd 6ef6 0cbd 36ff 243c
00000110: 9264 3abc 44b1 c13c e456 6ebd a4d5 1c3d
00000120: f261 7d3d ca9b 9abc c3e0 2ebd a0e0 143d
00000130: 00e0 ac3d 735b 90bc 413d e1bc 3159 ea3c
00000140: de0f b23c c499 b73d 1cf4 96bd 8998 503d
00000150: 2c89 a8bd 202d 0b3d 1aa3 8fbd c315 75bd
00000160: 04f1 b33c 2fbc 0cbd 36a0 2fbd 43e3 663d
00000170: 0fe7 cb3d 0980 f93c fc50 8bbc 5be3 853d
00000180: fa2d a0bc 5684 a83d 3767 9ebb 3e9e 89bb
00000190: 36b9 4b3b c368 b43c ad55 3dbd f00f 883d
000001a0: f688 0a3c 08a2 a13c b046 5b3d 7f40 ad3c
000001b0: 40a4 72bc c0bf a9bd 021e 863b 62db 9b39
000001c0: 2bcd 363d 734d 0dbd ff82 493d 56cb 86bd
000001d0: dc0b 5e3d 96cd 933d 35b4 2e3d 8631 c1bd
000001e0: 0c72 debc 8f98 893d efaa 183c 8dfb abbd
000001f0: 9822 a8bd 717c a83c c195 8cbd cf38 7fbd
0.07611287 0.042864684 -0.08767458 0.035160318 -0.038172614 0.0063059432 -0.041483723 0.074327156
0.04846542 0.028359534 -0.019221436 -0.007437717 0.05405425 0.052999534 0.03873306 0.08984527
0.066595666 0.026186332 0.09020325 0.092382565 -0.053009648 0.012463065 -0.013988197 -0.08134586
0.018680824 0.09730646 0.07312845 -0.073890045 0.026526943 -0.038850922 0.084162414 0.06443948
-0.021527547 -0.027985951 0.016948974 -0.04835339 0.04899244 -0.038201064 0.0147899715 0.05073018
-0.020280616 0.088696025 -0.01808537 0.02227504 0.009897282 -0.07025197 0.065524645 -0.035642203
0.053565517 0.055269897 -0.06292065 0.01104911 0.078738585 0.009150091 0.070830695 0.009223173
-0.046406113 0.057520997 -0.062421065 -0.031762995 -0.07540327 0.070698686 0.078456886 -0.053354852
0.029107653 -0.04549277 -0.0344147 0.010070613 -0.011376517 0.023644097 -0.058188334 0.03828968
0.061860986 -0.018873114 -0.04269482 0.03634703 0.08441162 -0.017621731 -0.027495028 0.028606983
0.021736082 0.08964875 -0.07370779 0.05092672 -0.082292885 0.03397858 -0.07013531 -0.059835207
0.021965511 -0.034359153 -0.0428774 0.056369077 0.0995618 0.03045656 -0.01700639 0.06537505
-0.019553173 0.08228366 -0.0048340815 -0.004199772 0.0031085736 0.02202261 -0.046224285 0.06643665
0.008455506 0.019730583 0.05353421 0.021148918 -0.014809668 -0.082885265 0.0040929327 0.00029727357
0.044629257 -0.03449769 0.049197193 -0.06581752 0.05421053 0.07216947 0.042652328 -0.09433274
-0.027153991 0.06718551 0.0093180975 -0.08397589 -0.08209723 0.02056715 -0.06864501 -0.062310036

weight f4 [384, 128]
00000000: 168c b5ba a719 22bc dde2 8c3c 5da0 513d
00000010: 12e5 5b3d 5320 1f3d 11cb 85bc 9f67 1bbd
00000020: cf66 80bc c6ca 463d 895a a4bd b93e fcba
00000030: 3a1c a73c 3966 573c a6ec afbd 470e cb3b
00000040: 9766 163d 67ca 30bc fd80 63bc ca48 203c
00000050: c507 aa3d ae4c 5cbd 0045 433d 70b7 ecbc
00000060: f4fe 6b3c 7d03 383c 1ae1 dfbc 87df cd3c
00000070: 5821 d7bc ab38 a6bd 75ef 383d f71d 91bd
00000080: 6c2e 2d3c f6da 74bd b286 53bd 53d3 a0bc
00000090: 5e76 8e3c 6838 863b e65d 9d3c a827 803c
000000a0: 6480 28bb 01ae 6f3c 514e 86bd e635 9e3d
000000b0: 3ecc 1c3d f47e afbd ad34 a7bd 3c84 833d
000000c0: 7c55 fabb 812f 92bd b5ed b7bd d1f1 5a3d
000000d0: 5eb5 20bd 2b4b 1c3d 0786 843d 7e7a 8abc
000000e0: b5f8 a03d f537 93bd 7e1d a4bd 0146 a73d
000000f0: c6a9 2d3d 2afa fcbc 56b2 57bd b7ac 9abd
00000100: 455d 25bd 1526 663b 5b63 49bb 89bb 36bd
00000110: fee7 023d a790 0dbd f197 5c3c 16cf 5bbd
00000120: a3cd 80bd a014 763d e4bd 53bd c2ed 8b3d
00000130: 5bb1 afbd 21f0 273d ac77 d33d 66e2 8ebb
00000140: 54fa 94bc 3c07 43bc 649b 293d 7a76 47bd
00000150: da84 86bc d70e cc3c 10c2 44bc 66ff 7e3b
00000160: b969 82bd 37ce 6fbd da80 6bbc 765f 873d
00000170: 51f2 b33c c819 b3bd 4897 20bd 0381 11bc
00000180: 1dc7 5a3d ec60 95bd 03bd aa3b 9375 053c
00000190: 4149 7f3d ed4c 253d c6d6 a6bd 426b 10bd
000001a0: efba bbbd dd3f 353b 67ef 3dbd c091 9c3c
000001b0: cb93 8cbd 6717 8fbd 09f8 21bc ff59 66bd
000001c0: 6cee 123d 47c7 a53b 0e83 5c3d 1e66 073d
000001d0: d273 ddbc 4378 35bc 57fe b43c 0f61 a7bd
000001e0: 0809 84bd 9d33 a3bd dde0 18bd a209 c2bc
000001f0: b6f8 af3c 2f5b 8fbd 50c1 fabc a216 cf3c
00000200: e66f 413d c665 a93d e6bf 903d 4b65 b53c
00000210: 7460 97bd 9ebe 9abc 92df ab3d 4866 a23c
00000220: c8e0 f3bc d7de 9f3c 841c fbbc 5179 d9bc
00000230: 1e0e 40bd 5a77 c3bc a79c 8b3d ccb2 8839
00000240: 4211 ee3c 894a 20bc a4f4 573d d0c8 863d
00000250: 8435 b1bd 60e9 643d 2e31 8d39 1687 fdbc
00000260: bb92 58bd 8a50 15bd b1ec 8fbc 61eb ca3d
00000270: a9d9 22bd a533 613d a2a5 36bd b639 0d3b
00000280: 5272 bf3b 5d36 d63c fedc 87bc 6da9 eebc
00000290: 60c6 89bd 24d0 92bd b2e9 5dbd 8180 2a3d
000002a0: ea3c 25bd 955a 76bc 2188 0fbd 7252 90bd
000002b0: 7dd7 6f3d d894 48bd 1b27 99bc 61d8 a33d
000002c0: 0055 673b 6516 933d 2544 683d 4d72 b43c
000002d0: 2870 453d 522c 883d 85d5 313a ca02 aa3d
000002e0: d0e7 d03c a7d3 dc3c 26b3 963d 4e21 3ebb
000002f0: d932 253c df38 b03d a1ed 263c 57d9 30bd
00000300: 25b4 87bc 37e8 8fbd 0775 0e3d 1ea8 88bd
00000310: f3d1 b7bc 032c 99bd c22c fa3c 66b9 71bd
00000320: 47b1 a13d c2c4 83bc 6f33 6cbc b3aa b9bc
00000330: 2de1 53bd e1f8 f7ba b2fe c83d 9e87 8b3c
00000340: b13e 753d 98a8 303d 19a2 d9bc 26ee a23c
00000350: 435d 88bd 2b9b b8bc f952 adbd a93c 953d
00000360: 3ff6 51bd 314e 57bd 6599 1c3d 3e04 9c3c
00000370: 5d5b 9abb bf9b 223d a0e0 ab3a 7f4b 9e3c
00000380: 022f 2f3d f548 ebbc 4145 bcbc fe61 9c3d
00000390: 2d4d 75bd 10f5 623d 83e6 a7bd 9d5b 6abd
000003a0: 3581 77bd b00d 843c 5f9d 4c3d 1ca2 16bd
000003b0: 35b0 613d 98d2 3cbd cbca b6bc 0f42 2e3d
000003c0: 43bb 613d 3ed2 51bd c092 72bd dfa5 81bc
000003d0: 6f37 d9bc 2666 86bd 0293 7739 62e6 a93d
000003e0: 319b 9abd 714f 8ebd 74b7 853d 1678 90bd
000003f0: 47a2 66bd 9031 2bbd 1f9c 763d f9ef 053d
-0.0013850953 -0.009893811 0.01719802 0.051178325 0.053685255 0.038849186 -0.016332181 -0.037940618
-0.015674023 0.048533224 -0.08025081 -0.0019244767 0.020399202 0.01314693 -0.08590059 0.0061967704
0.03671893 -0.010790444 -0.013885734 0.009782979 0.08302263 -0.053784065 0.047673225 -0.028896064
0.014404047 0.0112313 -0.027329016 0.025131 -0.026261017 -0.08116277 0.04515024 -0.070857935
0.01057015 -0.05977913 -0.051642127 -0.019632017 0.017390426 0.0040960796 0.019209813 0.01564391
-0.0025711292 0.014628888 -0.065579064 0.07725124 0.038280718 -0.08569136 -0.08164344 0.06421706
-0.007639585 -0.07137967 -0.08980886 0.05345327 -0.039235465 0.038157623 0.06470876 -0.016904112
0.07859937 -0.07188407 -0.08013438 0.08167649 0.042398237 -0.030881006 -0.05266031 -0.07552474
-0.040372152 0.0035117914 -0.0030729386 -0.04461244 0.031959526 -0.03456178 0.01346396 -0.05366429
-0.06289222 0.060078263 -0.051694766 0.06832458 -0.0857875 0.04100049 0.1032556 -0.004360485
-0.018185772 -0.01190358 0.041407958 -0.048696972 -0.01642077 0.02490942 -0.012009159 0.0038909554
-0.06367821 -0.05854627 -0.014373982 0.066100046 0.021966131 -0.08745152 -0.039206773 -0.008880856
0.053412545 -0.07293877 0.0052105202 0.008145708 0.06232572 0.040356565 -0.081464335 -0.03525854
-0.09166514 0.0027656474 -0.04637089 0.019112468 -0.06864127 -0.069868855 -0.009885796 -0.05623817
0.035871908 0.005059156 0.05383592 0.03305637 -0.027032766 -0.011076036 0.022093935 -0.08172809
-0.06447035 -0.07968829 -0.03732382 -0.023686234 0.0214809 -0.06999814 -0.030609757 0.025279347
0.047225855 0.08271365 0.07067852 0.022143027 -0.07391444 -0.018889721 0.08392252 0.019824162
-0.02977027 0.019515438 -0.030653246 -0.026547106 -0.046888463 -0.023860622 0.068169884 0.00026073155
0.029060964 -0.009783396 0.05272354 0.06581271 -0.086527854 0.055886626 0.00026930257 -0.030948203
-0.052874308 -0.03645376 -0.017568918 0.09908176 -0.03975836 0.054980893 -0.044591554 0.002154929
0.0058424855 0.02614897 -0.01658487 -0.029133523 -0.0672729 -0.07168606 -0.054177947 0.041626457
-0.040341295 -0.015036245 -0.035041932 -0.07046975 0.058555115 -0.048970073 -0.018695405 0.080002554
0.0035298467 0.07182006 0.056705613 0.02202716 0.048202664 0.066490784 0.0006783831 0.08301313
0.025501162 0.026956392 0.073583886 -0.002901155 0.010082924 0.08604597 0.010188491 -0.04317602
-0.016565392 -0.07026713 0.034779575 -0.06672691 -0.022438979 -0.07479098 0.03053892 -0.0590147
0.07895141 -0.016085032 -0.01441656 -0.022664404 -0.051728416 -0.0018918776 0.09814204 0.01703244
0.05987424 0.043129534 -0.026566552 0.019888949 -0.06658413 -0.022534927 -0.084630914 0.07286961
-0.05126023 -0.052564804 0.038232226 0.019044992 -0.0047105984 0.039699312 0.0013113208 0.019323109
0.04276944 -0.028721312 -0.022982242 0.07635878 -0.059888054 0.05540949 -0.081982635 -0.057216275
-0.060425956 0.016119808 0.04995477 -0.036775693 0.055099685 -0.046099275 -0.022313496 0.042543467
0.055110227 -0.051225893 -0.059221983 -0.015826164 -0.02651569 -0.06562452 0.0002361052 0.08295895
-0.07549132 -0.06948746 0.065291315 -0.070541546 -0.056307103 -0.041795313 0.060207482 0.03269956

bias f4 [384]
00000000: 7cb5 06bd f98b 8d3d 8206 d7bc 53f0 623d
00000010: e65b 843d e870 9abd 7190 c23d 805b f03c
00000020: 6feb 913d c439 dabc 8bc6 763d b74b 6f3c
00000030: 5ba5 88bd 31c2 af3d 0564 963d 8329 9dbd
00000040: 5de8 c23a 446d 893d 8bfd 703c 0064 013d
00000050: 3a72 a23c ada9 31bb 0482 763d f8bb d73b
00000060: 6422 f23b ee81 f03b abdd 24bd a8b5 6abd
00000070: 874b 76bd 8823 b93c 6624 bcbc 46d0 90bd
00000080: 56ec 093b 43f3 9fbd e979 7f3c 95ec d7bc
00000090: add7 353d f134 923c 4724 0c3d 9e0a 84bc
000000a0: 007b 5ebd 21f2 67bb a950 723b 5968 933d
000000b0: 2e72 913c 7374 c9bb 9b73 f8ba b752 523d
000000c0: 674a 9a3c 7f9c b13d 0710 46bd acfe 6b3d
000000d0: 7fff 72bd 01e4 5e3d b850 6e3d e513 763d
000000e0: 3372 2fbb 32d8 67bd 1d1d 2abd f7b8 20bc
000000f0: bb26 ecbc f471 333c ab1f 33bc 7665 813d
00000100: 8bc2 82bd a6a0 fcbc 168e 813d 975d dfbc
00000110: ab7e d2bc fd4f acbc c28c 123c c544 813d
00000120: 15de be3c 28ff 883c bc6d 6b3d f466 95bd
00000130: 7258 643d b83a a8bd 03bb 813d 3dae 96bd
00000140: a2ba 353d fa40 3abd 62ad 8cbd 4009 443c
00000150: bf49 5a3d c2b7 f93b 82ab 24bd e8ef d33c
00000160: 22af d53c 8c8c a23c 7670 87bc 2970 ce3c
00000170: 2942 81bc 591e 803d 48f2 423d 1e6e 693d
00000180: 6dd1 c73c 8a09 823d d9eb b0bc 2cb8 b03b
00000190: 231e e83a 2aae 763d ee65 a0bd 9c0c 823b
000001a0: 2bee 06bd d1ec b33c 4bda 26bd 0865 e93c
000001b0: ee7d 2ebd 59fa a53d 608b b03c dd38 053c
000001c0: 74de 94bd 5865 98bc 70ba bfbd 7b48 5fbc
000001d0: ee70 56bd 732b 233c 4cd1 68bd 3e72 953d
000001e0: c875 eabc 7a55 45bd ac72 17bd 3f6a 763d
000001f0: f11f 953c 3f83 04bd 3a6b b23d 3d62 5cbd
00000200: e53b 6bbd 1264 de3c 8a17 31bd aa8d 0c3d
00000210: 462c 5dbc 7c5e 833d 0c38 f63c 7669 983c
00000220: be55 853d 47e3 58bd c54e 963d 1f55 04bd
00000230: 9018 c23c 32dd 8e3c 717f 61bd 54bc 373d
00000240: 3ed9 253d 160f 513d c0e5 1a3d 080e 5abd
00000250: 1d1b 333d ef92 4e3d c568 febc d38f f7bc
00000260: e228 5b3d 8ed5 573d 8dca e23b 2944 e53c
00000270: 1c6c 563d f8c9 d83c bbe9 963d 2de8 8dbd
00000280: 2247 053c 6945 063d 3f9e 02bd ae2b 3dbd
00000290: 1a79 03bd 4254 373d 1510 70bc a376 403d
000002a0: c10e 843d a12c 5fbd 5ae2 ae3d be2d 573d
000002b0: c41b 683d ed77 31bd f4e0 113d 9795 84bc
000002c0: 4943 b73c b5f7 1ebd 7d61 3dbd 308b 7b3d
000002d0: 9039 c03d df5e 4b3d 433d 41bd 050f 8b3d
000002e0: e0d2 88bd a10b 10bd f5c9 1ebd 9fab d9bc
000002f0: cd81 a33d f3ee afbc d29d 95bc 0b7c 243a
00000300: 9066 0b3d cdaa 9f3d 12f6 b3bd bea7 28bd
00000310: 4a4b fabc 05d9 0fbd 8590 debc 8c5a f73b
00000320: 01b8 573d 953f 7b3d 4dcc 103d 37a5 17bb
00000330: c065 183c 78b0 2a3d 8853 3c3d 565f 13bd
00000340: 70cc 093a eede 0a3d 2ba7 b0bd 5540 af3c
00000350: 0dd1 303c b398 38bd f442 903d 2bd0 a23d
00000360: a355 513b 19b3 3fbd 47f7 a6bc 4742 90bb
00000370: 9870 843d 01da 7cbd 85cc dabc 06e6 373d
00000380: 0c8c 83bc 86ba b6bd e74f a13d 7451 2bbd
00000390: cbc7 8b3c 9cac 53bc 41b4 50bd b0f4 0dbd
000003a0: bd96 a2bd af36 60bc d88e 7cbd c1a1 3dbc
000003b0: c318 6c3d 6d39 1bbd 7969 623d e41e 573d
000003c0: 2c5b 7c3d 2bac c0ba fa8c 9bbb 4854 633c
000003d0: a1d4 823d 9600 883d 063c 57bd c8f1 db3c
000003e0: a657 493d 18a3 c53d ce84 cc3c 714c 33ba
000003f0: 898e 803d ddf4 1f3d 5d15 9a3c 48fc 803c
-0.03288792 0.06911463 -0.02624822 0.055404972 0.06462841 -0.075410664 0.09500206 0.029340506
0.071249835 -0.026638873 0.06024794 0.014605454 -0.06672164 0.08581961 0.07343296 -0.07673933
0.0014870275 0.06710294 0.014708887 0.031589508 0.019829858 -0.0027109191 0.060182586 0.006583687
0.0073893536 0.0073397076 -0.04025046 -0.057302147 -0.060130622 0.02259995 -0.022966575 -0.07070975
0.0021045408 -0.0781007 0.0155930305 -0.026357928 0.044395138 0.01784751 0.034214284 -0.016118344
-0.05431652 -0.0035392123 0.0036974347 0.07197637 0.01775464 -0.006147915 -0.0018955352 0.051348414
0.018834306 0.086724274 -0.04835513 0.05761592 -0.05932569 0.05441666 0.05818245 0.060077567
-0.002677095 -0.056602664 -0.04153167 -0.009809724 -0.028827062 0.0109524615 -0.010932843 0.0631818
-0.063847624 -0.030838322 0.06325929 -0.027266307 -0.025695166 -0.021034235 0.008944692 0.06311945
0.023299256 0.01672323 0.057477698 -0.072950274 0.05574841 -0.08214325 0.06334498 -0.07357452
0.04436744 -0.045472123 -0.06869008 0.011965096 0.053292986 0.0076207826 -0.040202625 0.025871232
0.026084486 0.019842409 -0.016533118 0.025199967 -0.015778618 0.06255788 0.04759434 0.05698978
0.024391854 0.06349476 -0.021596836 0.0053930487 0.0017709177 0.06022469 -0.078319415 0.0039687883
-0.03294198 0.021963509 -0.040735524 0.028490558 -0.042600565 0.08104391 0.021550834 0.008131233
-0.07268992 -0.018603012 -0.09361732 -0.0136281205 -0.052353792 0.00995909 -0.056840226 0.072971806
-0.028620616 -0.04817722 -0.036974594 0.060159918 0.018203707 -0.03235173 0.08711858 -0.053804625
-0.057430167 0.027147327 -0.04323534 0.03431479 -0.013499325 0.06414506 0.030056022 0.018604975
0.06510495 -0.052951124 0.07339243 -0.03230774 0.023693353 0.017439459 -0.05505318 0.044857338
0.04049038 0.051039778 0.037816763 -0.053236037 0.04372703 0.050433096 -0.031055817 -0.030219948
0.053505786 0.052693896 0.0069211186 0.027986603 0.052349195 0.026463494 0.07368799 -0.0692905
0.008134635 0.03278104 -0.031889196 -0.046184234 -0.032097913 0.04475809 -0.014652272 0.04698814
0.064481266 -0.05448592 0.08539267 0.052533858 0.056667104 -0.04332726 0.035614923 -0.016184611
0.022370951 -0.03881045 -0.04623555 0.061412036 0.09385979 0.049651023 -0.047177564 0.06789974
-0.06680846 -0.03516734 -0.03876682 -0.026571093 0.07983742 -0.021476245 -0.018263731 0.00062745874
0.034033358 0.077962495 -0.087871686 -0.041175596 -0.030553479 -0.035119075 -0.027168522 0.007548636
0.052665714 0.061339933 0.035351086 -0.0023139247 0.009301603 0.0416722 0.0459781 -0.03597959
0.0005256599 0.03390401 -0.08625635 0.02139298 0.010792029 -0.0450675 0.0704402 0.07949861
0.0031941913 -0.04680166 -0.020381583 -0.004402432 0.06466788 -0.061731342 -0.02670885 0.0448971
-0.01605799 -0.08922295 0.07876568 -0.041825727 0.017063042 -0.012919571 -0.050953154 -0.03465718
-0.07938907 -0.013684913 -0.061659664 -0.01157421 0.057640802 -0.037896562 0.055276368 0.052519694
0.061610386 -0.0014699748 -0.0047470303 0.013875075 0.06388212 0.06640737 -0.052547477 0.026848689
0.049155854 0.09650248 0.02496567 -0.0006839699 0.062771864 0.03905188 0.018809015 0.015745297
